model/keypoint_classifier/keypoint_classifier.tflite (tflite, 6588 bytes, 6 tensors)

sequential/dense/BiasAdd/ReadVariableOp f4 [20]
00000000: 81fd ebbe aed2 553e 5a63 c5be ae3d dfbe
00000010: 2d10 4bbf 2a64 84bf 237a d3be 9eb6 d6be
00000020: 5287 c8be 6b61 ecbe 57c2 92bd 9ae0 67bf
00000030: 3d4c fabe 14e1 e2be 2f50 fbbe dde7 7fbe
00000040: 4e0d 05bf 6108 98be 8649 d9be 9843 67bf
-0.46091846 0.20881149 -0.38552362 -0.43601745 -0.7932156 -1.0343068 -0.4130412 -0.419362
-0.3916574 -0.46168074 -0.07165974 -0.9057709 -0.4888629 -0.44312346 -0.49084613 -0.24990793
-0.51973426 -0.29693893 -0.42438906 -0.90337515

sequential/dense_2/BiasAdd/ReadVariableOp f4 [5]
00000000: d4be abbe b1f5 693d b148 113f 6770 a63e
00000010: 375f 79be
-0.33544028 0.057119075 0.56751543 0.3250763 -0.24352728

sequential/dense_1/BiasAdd/ReadVariableOp f4 [10]
00000000: cec7 b9be 37c8 12bf 6ee3 93be d7b3 653f
00000010: 98c3 553f e043 db3d 25c1 e43d 1fb5 623e
00000020: 844e 03bd a799 9b3d
-0.3628525 -0.57336754 -0.28884453 0.8972754 0.8350158 0.107063055 0.11169652 0.22139405
-0.0320573 0.07597666

sequential/dense/MatMul f4 [20, 42]
00000000: b8f3 4a3d 3a1b cbbd 0f8d 863b ffdf 643e
00000010: 6901 7c3d 83a2 103e 3c16 193d 57d8 0c3e
00000020: de0b 563d 8e73 ef3d f233 a7bc cc01 7a3d
00000030: 9153 72bc ffcd 203d a4e4 06bc ebc9 1b3d
00000040: 9860 b7bd bbfd 29bd 9e19 fcbc dee0 8e3d
00000050: 2583 f13c f73b ed3d ea64 ca3d 02a6 bcbc
00000060: 9d08 aebc 6b42 a2bf b7b5 9d3d 55c3 073e
00000070: 249f 18bd 9567 d23d 3919 eabd 2db4 2c3d
00000080: 6781 06be a6a0 53be fc4c 043e 9a58 733e
00000090: b612 57bd 6562 453e b508 7bbd 3b91 d7bb
000000a0: 3598 0bbd 0f76 63be 1ee7 96be ce3b 193e
000000b0: 6112 703e 5687 163f 8598 843d d006 993e
000000c0: 5d9d 3f3d e81e 7b3e d77a 8b3d 7e84 b23e
000000d0: 4de8 2dbe dc8f 123e 4a29 92bc 0c0c 0b3e
000000e0: 1971 3f3d 57e8 b7bd 6dd7 6abd cf90 b7bf
000000f0: b46b 3bbe d493 0f3e e884 e5bd ee0b b23d
00000100: 01b6 013d e80e 893d 7e0e a03d 79d7 0e3d
00000110: b2b1 9abd 1ad6 223e 35bf e9bd 3d64 e63d
00000120: fb27 e6bc 9e97 973d e6e6 1b3d 323f ab3c
00000130: 35ec 693e 5148 323e 5bc7 5bbe a826 223e
00000140: cc61 80be 6412 df3d 2807 fbbc dff6 9a3d
00000150: 2509 91be d4d1 413e 9ee2 5bbe c89e 993d
00000160: 2c4d 14be 8ac3 ccbd 3956 92be 2890 36be
00000170: e848 14bf 5e30 34be f515 4fbd 5f0e 2c3e
00000180: 00c1 123c fe65 543d 4ac8 043d 980b c03c
00000190: 9ec7 973d 9f19 48bd f2a1 8bbd f08f 843e
000001a0: a45e 97bd 362d 883c c3f7 863e 4149 173d
000001b0: 4a09 013f 1a6f 043e 10e1 33be 4433 a73e
000001c0: e647 a7bd 6914 003d 5deb b03e aa90 18be
000001d0: 4a1c 083f 80f2 92be 659e 76be 7659 a83e
000001e0: ea0a 4bbd 68f0 dd3d d058 443e 7bd8 573c
000001f0: edc0 c63e ce9f 883e 20ea 893e d68c dbbd
00000200: db1e 1c3f ecc4 d23f 3add c63d 7f35 953f
00000210: 65c2 ddbd f28f 083f ac38 f7bd df18 c53e
00000220: df7d 2cbe 4ffc 2c3f 6bea be3d b403 773e
00000230: 3b15 8e3d c095 76be 4929 b23d 84de edbe
00000240: 5204 9abd 340c 8e3e 59cb c7bd 13f0 f63d
00000250: 366e 1a3d a6c5 93bc e4e6 813d f3e4 7fbd
00000260: a858 19bd a351 88bc bf04 f5bd 6f0e efbc
00000270: cc33 643c d924 90bd 3a72 3b3d 4fe8 a3bd
00000280: 4b51 1dbc daa8 b9be 117f efbd 9d29 16be
00000290: 4925 9fbd 8259 b3bd 149c 013d b1ab 95bd
000002a0: 5f69 8abe 8810 8e3e ee47 99be 2f1f 013f
000002b0: de11 423d 3059 993e b56c 673e d986 163e
000002c0: a9d6 5b3c 40dd 21bd a943 87bd 1175 193c
000002d0: 06f2 2d3c 3087 f73c c77b 9f3d af14 243e
000002e0: 4c87 1a3e 638c 203e 03f0 a13b 4877 913c
000002f0: fe50 9a3c 5785 11be bc98 91be 2159 aebe
00000300: 1113 5fbf d603 5fbe fbfe 133e cf0a 5a3c
00000310: 3f45 e93d ecff 50be b60c b0be 9155 87be
00000320: 17a9 3cbf 322a d1be a554 233e 0764 683c
00000330: ed13 c43d 6b48 33be b628 46be ad56 4abe
00000340: 5549 f7be e037 25bf 8cfc 813e f4b7 1b3e
00000350: 6595 09be 853d 00bf 58ef eb3c f37e 19bf
00000360: a552 76bd 8eae f5be 5771 4abe ba83 15be
00000370: e5f2 25be 0365 23be 20ed 9c3d 09ee 50bd
00000380: 9395 dc3d 8220 af3d 8be6 a73d 42a0 ea3d
00000390: d5c4 66bd 8615 f1bd 042e d53c fb1f 17be
000003a0: b5a3 2b3d e8c0 963d 6d2e 5fbd b4b7 a33d
000003b0: 67e8 0ebe 62a6 3cbe b1fc dabc 7ecf 45be
000003c0: 6ad8 243d 9f2f d63d 117a e93c 1ee5 0e3e
000003d0: e737 89bd dc3c edbe 5216 bfbd 93a2 09bf
000003e0: 3b01 bc3c 7fbf ecbc 9850 813c fabb 9b3d
000003f0: 38f0 c53d 8409 9bbe 3789 693e 456e ac3e
0.049548835 -0.099173024 0.004106171 0.22351073 0.061524782 0.14124493 0.03737472 0.13754402
0.05225741 0.11691962 -0.020410512 0.06103687 -0.014790432 0.039258953 -0.008233223 0.03803436
-0.08953971 -0.04150174 -0.030773934 0.06976484 0.02948148 0.11583703 0.09882529 -0.023028377
-0.021244342 -1.2676519 0.07700675 0.13258107 -0.037261143 0.10273663 -0.11430592 0.042164017
-0.131353 -0.20666751 0.12919992 0.23764268 -0.05250808 0.19275816 -0.0612876 -0.006578592
-0.034080703 -0.22213005 -0.29473203 0.1496422 0.23444511 0.58800256 0.06474403 0.2988801
0.046780933 0.24523509 0.06810539 0.3486671 -0.16983147 0.1431269 -0.017841954 0.13578814
0.046738718 -0.08979862 -0.057334352 -1.4341067 -0.18302804 0.14021236 -0.112069905 0.08693682
0.031667713 0.06692296 0.07815264 0.03487346 -0.07553424 0.15901986 -0.11413423 0.11249588
-0.028095236 0.074019656 0.038062 0.020904157 0.22844012 0.17410399 -0.21462767 0.15835059
-0.25074613 0.108921796 -0.03064306 0.07566618 -0.2832729 0.189277 -0.21473166 0.07500988
-0.14482564 -0.099982336 -0.28581408 -0.17828429 -0.57923746 -0.17596576 -0.05055805 0.16802357
0.008957148 0.05185508 0.032417573 0.023443028 0.07411121 -0.04885256 -0.06817998 0.25891066
-0.07391098 0.01662312 0.26360902 0.036935095 0.504048 0.12933007 -0.17566323 0.326563
-0.081680104 0.031269465 0.34554568 -0.14898935 0.53168166 -0.28700638 -0.2408386 0.32880753
-0.049570955 0.108368695 0.19174504 0.013174172 0.38819066 0.2668442 0.26936436 -0.10720222
0.6098458 1.6466346 0.09710164 1.1656951 -0.108280934 0.53344643 -0.12071356 0.38495538
-0.16844891 0.6757249 0.093220554 0.24122506 0.06937643 -0.24080563 0.08699281 -0.46458828
-0.07520355 0.27743685 -0.09755582 0.12057509 0.03770276 -0.018038582 0.06342867 -0.062474202
-0.037438065 -0.01664049 -0.11963796 -0.029181687 0.013928365 -0.07038278 0.04576323 -0.08003294
-0.009601901 -0.36261636 -0.11694158 -0.14664312 -0.077707835 -0.08757307 0.03164299 -0.07308138
-0.27033517 0.27746987 -0.2993769 0.5043821 0.04738032 0.29950857 0.22600062 0.14699878
0.013417878 -0.03951764 -0.06604702 0.00936629 0.010616785 0.03021583 0.077872805 0.16023515
0.15090674 0.15678553 0.0049419417 0.017757073 0.018837448 -0.14211021 -0.2843684 -0.34052375
-0.8713847 -0.21778807 0.14452736 0.013308241 0.11390161 -0.20410126 -0.34384698 -0.2643247
-0.7369551 -0.40852505 0.15950258 0.014184005 0.09574113 -0.17508094 -0.19351467 -0.19759627
-0.48298135 -0.64538383 0.2538799 0.15206891 -0.13435896 -0.5009387 0.028800651 -0.59959334
-0.06013741 -0.47984737 -0.19769798 -0.14601031 -0.16205938 -0.15956502 0.076624155 -0.051008258
0.107707165 0.08551122 0.081982695 0.11456348 -0.056340057 -0.117716834 0.026022919 -0.14758293
0.04190417 0.07361013 -0.054487634 0.07994023 -0.13955842 -0.18422845 -0.02673182 -0.19317433
0.04024545 0.10458302 0.028500589 0.13954589 -0.06700116 -0.46335495 -0.09330429 -0.53763694
0.022949805 -0.028899906 0.0157855 0.07604213 0.09664959 -0.30280697 0.2280625 0.3367788

sequential/dense_1/MatMul f4 [10, 20]
00000000: ea76 57bf 993a 7cbe 400a bc3c d437 083f
00000010: d674 46bd 8e43 323f f46f dcbd 1caf f4be
00000020: b6cd d6bd 7acf f63e 4d8f 59be 6628 253f
00000030: 4b5d a4be 5207 d9bd e5b3 0dbe da55 283d
00000040: d088 1dbe 24f3 2b3f 8e89 42be 0a53 403f
00000050: 8cd2 b9be 2e7c 133e 558a 1dbe 4fb3 e83e
00000060: 8194 aa3e 7d83 8b3f 6c17 003f 6306 303f
00000070: 5941 be3d 0db5 97be 2c8d a23c baea 323e
00000080: 374e 243f 0212 f63c 0ebb 043d 7eab 49be
00000090: d1de 1e3e 08fa ef3e 6b5b d6bd 9805 43bd
000000a0: 9ca9 e3be 5069 cfbd f7c6 c7bc a154 983e
000000b0: 1365 30be 8168 34bf 85c1 603d ef3c fa3e
000000c0: df74 453b 2046 ea3e 6fa2 0abe 2e8f 833f
000000d0: 036a 8b3e c8df 32be 30f2 bdbd 2d9f 373d
000000e0: 019c 49be 80e8 12bf ea19 cebd d3f2 7dbe
000000f0: 12ab ccbf 38f6 613e a2c9 04bf bc98 e4bc
00000100: 16e3 5dbf 4b16 93be a608 19bf 171e fa3d
00000110: 9837 10bf 6ae0 983c b4fd ea3e 7068 9ebc
00000120: 150e 5c3e bacf ccbf 3b64 9cbf faa2 93be
00000130: 03d0 a6bf f789 ad3d b400 04bf b3b2 39bd
00000140: 16ab 23bf afdb f03e d307 f6be 4b03 ac3e
00000150: 1c6b 0ebe cbd1 1d3f 7d67 4fbd 4f53 cbbe
00000160: 2be6 45be ee04 ef3d 5e67 dc3e 3715 8fbd
00000170: ac32 2a3f 2604 14be 177f 64be 53d9 363e
00000180: e3e6 b23d ced9 babe 6e29 02bf 641f 8b3f
00000190: ec9f 043f 0f0c e93e 7af0 183f d510 4e3d
000001a0: af93 233d 943f 8cbe f484 b73e 179e c43d
000001b0: 7ed7 b93e 5580 843e 035e db3e 0cd5 b3be
000001c0: bd6f 0dbe fba4 ef3b 5c90 9cbd ee7a 143f
000001d0: 6688 9f3d fa3c 47ba b983 dc3e 0c4f 12be
000001e0: 4475 5a3f 282a 5b3e 910c 083f ee0a 133f
000001f0: 759b 523f 8991 fcbc cbe5 843f d836 be3c
00000200: b8a1 7c3f f84b b43d b1d4 803e 8b02 183f
00000210: 4abe 33be 4f7b 5b3f 3e3d 0f3f f2e7 773e
00000220: 67a3 393f 68f5 cfbd 552e 233f e909 09be
00000230: a88d ccbd fa1c f03f ca37 763f 072c d03f
00000240: ea47 ed3a ef77 c9be 23ee a33f fcaf 733f
00000250: c57f 943f 4380 3c3f f11e d83f 394b 09be
00000260: 63c0 9d3f a4b9 8b3c 9c26 c43c 96e0 c33f
00000270: 0ead 953c 2b35 423f 3285 063f 94ba e73e
00000280: 2d45 e9bd ba3b 26bd c0c3 5f3f 959c 4f3e
00000290: fa38 66be f0a8 10bf 14e4 45be 5282 8c3d
000002a0: 222f 343f 6e05 35bd cfbc 653b c9e8 a8be
000002b0: d90d 21be 8115 3dbf d55b d53e 876b bebe
000002c0: 6032 393f 3efe 68bb 5107 80bf b50a 0d3f
000002d0: 47e8 4f3d ac35 4abf a72f 083e 9616 c33e
000002e0: d41f e8be 06dc cdbd f5e6 b6be 2eea ecbe
000002f0: 0e7d 25bf 1fd4 2cbe 39a6 79be 4537 513d
00000300: 158a 173e d5d5 22bf f202 553e 8970 2c3f
00000310: e324 f2be c55b 43be 9ff3 dabe 4b0a 523d
-0.84165823 -0.24631728 0.022954106 0.53210187 -0.048451267 0.6963433 -0.10763541 -0.47789848
-0.10488455 0.48205167 -0.21246071 0.6451477 -0.32102427 -0.10597099 -0.13838156 0.0410975
-0.15384221 0.6716788 -0.18997785 0.7512671 -0.36293447 0.1440284 -0.153848 0.45449302
0.33316424 1.0899502 0.5003574 0.68759745 0.09289808 -0.29630318 0.019842707 0.17472354
0.64181846 0.030037884 0.03240495 -0.19694325 0.15514685 0.46870446 -0.10466655 -0.047612756
-0.4446534 -0.10127509 -0.024386866 0.29752067 -0.17226057 -0.7047196 0.054872055 0.48874614
0.0030129475 0.45756626 -0.13538526 1.027807 0.27229318 -0.17468178 -0.09274709 0.044829536
-0.19688417 -0.57386017 -0.100635365 -0.24799661 -1.5989707 0.22066581 -0.5187017 -0.02790486
-0.8667463 -0.28727946 -0.5977882 0.122127704 -0.5633483 0.018661696 0.45896685 -0.019336909
0.21489747 -1.6000893 -1.2218088 -0.2883528 -1.303223 0.0847358 -0.5156357 -0.045336436
-0.6393293 0.47042605 -0.48052844 0.33596262 -0.13908046 0.61648244 -0.050635803 -0.39711997
-0.19326083 0.11670862 0.43047613 -0.06986468 0.6648357 -0.14454708 -0.22314106 0.1785634
0.087354444 -0.36494297 -0.50844467 1.0868955 0.5180652 0.45517012 0.5974194 0.05030902
0.039935764 -0.27392256 0.35843623 0.09600466 0.3629722 0.2587916 0.42845163 -0.3512348
-0.13812156 0.0073133684 -0.07644722 0.58000076 0.07789688 -0.0007600334 0.43069246 -0.14287966
0.85335183 0.214028 0.53144175 0.5743855 0.8226846 -0.030831115 1.0382627 0.02321951
0.98684263 0.088035524 0.2516227 0.5937888 -0.17553058 0.8573503 0.55952823 0.24209574
0.7251496 -0.101542294 0.6374257 -0.13382687 -0.09987956 1.8758843 0.9617888 1.6263436
0.0018103097 -0.39349315 1.2807049 0.95190406 1.1601492 0.7363321 1.6884443 -0.13407601
1.2324337 0.017056294 0.023944192 1.5302913 0.018270995 0.7586238 0.5254699 0.45259535
-0.11390147 -0.040584303 0.87408066 0.20274575 -0.22482672 -0.5650778 -0.19325286 0.06860794
0.7038442 -0.04419463 0.0035055166 -0.329901 -0.15727939 -0.7386094 0.41671625 -0.37191412
0.7234249 -0.003555193 -1.0002233 0.5509446 0.050758626 -0.78988147 0.13299428 0.3810317
-0.45336783 -0.10051732 -0.3572308 -0.46272415 -0.64643943 -0.16877793 -0.24379815 0.0510781
0.14798768 -0.6360753 0.20801905 0.67359215 -0.47293767 -0.19077976 -0.42763993 0.051279347

sequential/dense_2/MatMul f4 [5, 10]
00000000: 7fd2 45bf 3f16 d4be 3b16 d9be bcc2 13bf
00000010: 59bf 3bbf 9e30 803f b0e4 943e d35a 1b3f
00000020: d8c1 e73e eb94 f53d e04e 253f 85fd 183f
00000030: f49b bc3f 1813 26bf 4b01 b33e bf5b 27bf
00000040: a2c4 7cbe 6ce8 f43e 327e 87be 16a4 58bf
00000050: 9807 04bf d1b0 48bf 9257 a9be 5034 973f
00000060: 737d 5e3e 15ec 5b3d b103 88bf 3c31 0c3f
00000070: 9bf4 c9bf fdb1 45bc 6895 29be bf02 2cbf
00000080: 11e4 903e 33fd 64bf f0c6 59bf e59f 7c3d
00000090: c4f5 1f3f 0ccf 07c0 68be 0b3f bf45 fb3d
000000a0: 117b 2f3e 0dd3 5e3f acfb 473e 8c1c adbf
000000b0: 683e 94bf 5171 fdbe da2e 04be 20fb 4bbe
000000c0: b972 2bbe d8f8 c9be
-0.77274317 -0.41423222 -0.42399773 -0.57719016 -0.7333885 1.0014837 0.29080725 0.6068546
0.4526508 0.119912945 0.6457348 0.5976184 1.4735093 -0.64872885 0.34961924 -0.6537437
-0.24684384 0.47833574 -0.26463467 -0.84625375 -0.5157409 -0.783948 -0.33074623 1.181284
0.21727543 0.053691942 -1.0626127 0.54762626 -1.5777773 -0.0120663615 -0.165609 -0.6719169
0.28299 -0.8944885 -0.8506918 0.061675925 0.62484384 -2.1220121 0.5458741 0.122691624
0.1713679 0.8704079 0.19529599 -1.3524337 -1.1581545 -0.49500516 -0.12908497 -0.19920015
-0.16742982 -0.39447665
